model/model.pth (torch, 38607 bytes, 4 tensors)

linear1.weight f4 [512, 14]
00000000: 42e6 bfbd d64d 51be 32f5 0a3e 6202 cc3d
00000010: 39d5 c5bd 7468 8a3e 4a12 623e 3192 38bb
00000020: a57c dc3d d64a 0abe 903c 853c 148f 35be
00000030: 3104 123f 76fd e63e 8940 013e 48b5 6dbe
00000040: b10f d93d 234f e3be 2cd0 033d d035 f3bb
00000050: bef1 edbd 41e1 6dbe c56f e7be 7f33 9abe
00000060: d655 a43c a74e a2be 5933 c8be 435e 95be
00000070: e4e7 3fbe 0c70 873e f3bd bdbe 6b40 8cbe
00000080: 0be7 463e 9b43 e3bd dda7 d0be f33b 313d
00000090: 0382 d4be 4b1b 823d f62f c3be 1bc5 89be
000000a0: aaef b6be cfd6 f93d c04b cb3c 91d6 acbd
000000b0: 997d 67bc b96c a3bc 698b 073e 6917 b03d
000000c0: 4706 33be ba13 f5be 35b6 57bd 77e7 8dbe
000000d0: d003 ef3a 7a34 afbe 515c b93d 9a8b 4abe
000000e0: caee 273f 1cbf d2be 2cce 863d 1d9c 633e
000000f0: 19f8 2cbd 3945 8d3e ffc8 b93e f2f9 ba3d
00000100: e1a1 b43e 4aee dabe bde4 20bf 290e 5f3e
00000110: 3bc7 f33d 4370 eabe 857d 2d3e 6d09 23be
00000120: d95d 18bd 53e3 0bbe 19ed 1d3c 173f 70bd
00000130: 0959 023e 0612 a8bd d280 b43c c12f 3a3d
00000140: b6d0 0ebd 7d22 b33c 5596 b6be 543e 9bbe
00000150: 84f8 c63d 0818 83be eefd ce3d 752d 7ebe
00000160: 8248 94bd d9d9 edbd 5e64 efbd eedf c2bd
00000170: a98a 36be 82e6 f4bd 2ef6 8abd c38d d5be
00000180: 924d adbe bbe9 833d f8f3 813e bb22 5ebe
00000190: 65ad 973e 071b 7ebe c6b4 94be 2eaa 91be
000001a0: dcd9 a0be 8e1c c1be 1b39 60be 19a8 77be
000001b0: bc8e 4fbe 0a2b a5bd 425b ebbd 9672 c4be
000001c0: 638f fd3d f19e 2dbf 8d90 49bd a4c2 06bd
000001d0: 71f6 aabc dfad 613e a0a2 8b3e 0b80 1f3d
000001e0: 26f4 0fbd 9521 ad3e 9b97 953e 6acf 53bf
000001f0: bcc7 a43e 5345 4ebe f809 cabd 776d a63e
00000200: 0b66 c6bd a89a fdbc eb99 0f3d 5b68 f53a
00000210: 763e c4bc 1581 22bc c94e 42be 2a0e adbe
00000220: 9ce4 66be 1cd5 a3bd 97eb 4abd ca8b 7dbe
00000230: c465 f23d ef63 dfbd 8095 cebd 0a63 c9bd
00000240: 1147 a03e a4f1 f1be 2f56 753e 5b83 2bbf
00000250: b68d 3a3e 9c62 afbc b6ad 39bf dc9b 713e
00000260: 8215 fbbe 130c 743d a4a0 d23c b085 c5be
00000270: b5ba 4bbe 9af7 b3be 3d4c e23d c713 abbc
00000280: 14c8 203e 0cd5 9ebe f95e 92be 58aa 58bf
00000290: 4c63 04bf d349 da3d 2d5c 853d 8e59 183e
000002a0: a25e 71be a7d4 84bd 7b2f 2a3d d29b 32be
000002b0: f653 adbd e02e 813c c741 87be e1cb 143e
000002c0: 9187 bebb 7ef5 653d d63e 853d d3bb ecbe
000002d0: b3de 9bbe 583e 00bd ccf1 ffbd 305d 87be
000002e0: 5e3f 12be edb7 49be bc49 63bd f3f9 80be
000002f0: b556 34be ca46 17bd da12 9d3d a24d d4bd
00000300: f43b 50be 96ec 563c b5cb 49bc 4a25 fdbd
00000310: 5286 25be 1e50 2bbe 2cc0 183e 4bc2 3d3e
00000320: 2399 4cbe 6e39 633e 0691 95be ce53 bcbe
00000330: 490d 4e3d 5272 32be 8684 d4bd 8d71 6abd
00000340: 5229 b3bd 311f a6bd 9192 213e dc22 95be
00000350: 2f20 ad3d 374b 6b3e f7ff 91be a3da a13e
00000360: c278 153e 46e3 d53b f552 ea3e 91f5 67bf
00000370: 7c0f 26bf 5609 533e 72c7 343d cc2e 88be
00000380: 441f edbe 862e cd3d 8df1 4dbe 42fb 2f3e
00000390: 3ce4 43be 9513 433c e33a 9a3e ea38 81bd
000003a0: 38da f3bd c3d9 41be fe0b 383e fc37 35be
000003b0: ebbb d1be 836c e3be b88d 683d c707 20bf
000003c0: 1e20 4bbf 1c72 a33d f340 7fbe 07cb 00be
000003d0: 8f97 303e fbdf e63c e23e 08bd 5d23 e53d
000003e0: ac45 21be f26c 8fbd 4697 e0be a2df cbbe
000003f0: b245 96be e60f 943d fcd0 d63e cef6 5d3e
-0.0937009 -0.20439848 0.13570097 0.09961392 -0.096598096 0.27032816 0.22077289 -0.0028163309
0.107659616 -0.1350511 0.01626423 -0.17730361 0.57037646 0.4511525 0.12622274 -0.23213685
0.10598696 -0.44396314 0.03218095 -0.0074221864 -0.11618374 -0.23230459 -0.4520246 -0.30117413
0.020060461 -0.31700632 -0.39101675 -0.29173478 -0.18740803 0.26452672 -0.37058982 -0.27392897
0.19424073 -0.11096879 -0.4075307 0.043270063 -0.4150544 0.06352862 -0.3812253 -0.26908192
-0.35729724 0.121991746 0.024816394 -0.08439363 -0.014129066 -0.019949304 0.13236775 0.08598215
-0.17482863 -0.47866613 -0.052664 -0.27715656 0.0018235389 -0.34219724 0.09050811 -0.19779816
0.6559874 -0.4116143 0.06582293 0.22227521 -0.042228792 0.27591875 0.3628616 0.091297045
0.35279754 -0.42759925 -0.62849027 0.21782745 0.119032346 -0.45788774 0.16942413 -0.15921564
-0.037198875 -0.13660936 0.009639048 -0.058653917 0.12729277 -0.08206563 0.022034083 0.045455698
-0.03486701 0.021867031 -0.3566157 -0.3032099 0.09715369 -0.25604272 0.10107027 -0.24822028
-0.07240392 -0.11613817 -0.116890654 -0.095153674 -0.17826332 -0.119580284 -0.06785236 -0.41709718
-0.33848244 0.06441065 0.25381446 -0.21692936 0.29624477 -0.24814998 -0.2904417 -0.2845015
-0.31416214 -0.37717098 -0.21896784 -0.24185218 -0.20269293 -0.0806485 -0.114920154 -0.38368672
0.123808645 -0.6782065 -0.04921012 -0.032900468 -0.020869466 0.22038983 0.2727251 0.03894047
-0.035144947 0.33814684 0.29217228 -0.82738364 0.32183635 -0.20143633 -0.09865183 0.3250539
-0.09687432 -0.030957535 0.035058897 0.0018723117 -0.023955565 -0.009918471 -0.18975367 -0.3379987
-0.22548145 -0.07999632 -0.049541082 -0.24760357 0.118358165 -0.10907733 -0.100871086 -0.09833343
0.3130422 -0.4725467 0.23958658 -0.6699731 0.18218121 -0.021409325 -0.72530687 0.23594612
-0.49039847 0.059581827 0.025711365 -0.38578558 -0.19895442 -0.35149843 0.110496975 -0.020883454
0.15701324 -0.31021917 -0.28588083 -0.84634924 -0.51714015 0.10658612 0.06511722 0.14877912
-0.23571256 -0.06485873 0.041549187 -0.17442253 -0.0846328 0.015769422 -0.26417372 0.14530899
-0.0058145006 0.056142323 0.06506126 -0.46237049 -0.30443344 -0.031309456 -0.12497291 -0.26438284
-0.14281985 -0.19699068 -0.05549024 -0.25190696 -0.17611201 -0.036932744 0.07669611 -0.1036637
-0.2033537 0.01311793 -0.012316634 -0.12360628 -0.1616452 -0.16729781 0.14917058 0.18531148
-0.19980292 0.22189876 -0.29212207 -0.36782688 0.05030564 -0.17426422 -0.10376839 -0.057237197
-0.087481156 -0.08111418 0.15778567 -0.29128158 0.08453404 0.22977911 -0.28515598 0.3161212
0.14596847 0.0065273372 0.45766416 -0.9060908 -0.6486738 0.2060903 0.04413552 -0.26598203
-0.46312916 0.10018639 -0.20111676 0.17185691 -0.19130033 0.011906524 0.30123052 -0.063096836
-0.11906856 -0.18930726 0.17973325 -0.17697138 -0.40963683 -0.44418725 0.05677578 -0.6251187
-0.7934588 0.07980749 -0.2492712 -0.12577449 0.17245315 0.028182974 -0.033263095 0.11188386
-0.15749234 -0.070032015 -0.43865412 -0.39819056 -0.29350048 0.07229595 0.41956317 0.2167618

linear1.bias f4 [512]
00000000: 6625 a83f d5f6 9dbd 7d6c 053e 1572 b3be
00000010: e7a2 ae3d deef e2be 8ac5 63bd d2a0 3ebc
00000020: 0de4 7d3e 8e15 3fbe 7de7 4cbe 9b45 45be
00000030: 0fc7 a6be 5669 7ebd f73d 90be bbd6 c33d
00000040: a502 f83d 175a bfbe 33ca 373e 6c42 843e
00000050: 92a1 9a3e cbc8 9ebd 465e 5bbe 0d4b 8dbe
00000060: 0aa8 6abe 4c29 233e fc65 82be 7c84 afbe
00000070: ad25 353e a7b8 91be 7f53 dcbc bdc1 07bd
00000080: caf0 67be a1c9 8fbe b659 ecbc b2eb 9dbe
00000090: 5c7d 1c3e 5ee5 09be 8f92 8fbd 7b50 cabc
000000a0: 69cf e9be 14b8 83be 8cc2 223d af88 23be
000000b0: 71c7 a0be 9177 e03c 9f6e ffbe fb68 99be
000000c0: 718d 63be 4fcc 36be 2ecf 21be 8f34 92be
000000d0: 9f1a 9bbe bd1f cabc 67a4 96bd 1f79 be3d
000000e0: 920d bebb 4dd2 bbbe 000f 8cbe 49d4 c5bd
000000f0: 3204 05be c636 9dbd 5f7a e9be ba75 1bbe
00000100: 8c69 3e3e c61e 853f 00ba 60be 046a 37be
00000110: ec02 58be 2c14 c9be ccb7 8ebe 541b 3cbe
00000120: a0db a0bd 75e3 e7be 6d16 8cbe 2158 54be
00000130: 5ec7 84be 3632 193e e2a4 75bd d514 cfbc
00000140: 471e babc fadb 7bbc a5b1 fbbe 6f4b f13a
00000150: 5cac a8be 337e b2bc 32ab 34be 0113 f9bc
00000160: a6ab a4be f602 6dbe e54c 2ebe c383 21be
00000170: 73ed fabd 3ba1 05bf 63eb 153c f3fb c53f
00000180: 65d0 b4be f68c b3be 929c a93c 20b2 9f3f
00000190: 5279 b2be 4387 d83c 42a8 b5bd ca8b 04bc
000001a0: a99b 98be 4683 92be 3b35 c1be 3119 eabd
000001b0: f28b adbe 6258 43bd c9f1 e8bd c0e2 93be
000001c0: da42 44be 9696 09be f1c1 dabe 6a88 c6be
000001d0: 85f8 ccbe f835 1cbe 92ba 0fbe fcc9 aebe
000001e0: 7159 b5be ff41 69be ebc0 953b 1c7e c0bd
000001f0: 831d b4bd 37c5 94be b7d7 4ebe b211 24be
00000200: f19c b9bd 9aa0 2abe d7db adbe 82dc 633b
00000210: 7cd9 9abe 1577 49be e074 a93d 727e b3be
00000220: dbbc b8be 4de9 7abe 8973 b5be d7ed b5be
00000230: 35fc a73c db99 9e3e bd63 aa3c 5582 bcbd
00000240: d6a9 a3be 4a4f 09be 2f37 b6be edcc 333e
00000250: f869 303f c0e3 92be 519d eb3d b555 76bd
00000260: c176 97be 5aff 223e c860 88be b780 adbc
00000270: 6cd5 92be 0504 65be c5f7 6ebd 64e6 e3bd
00000280: e493 8f3e 7b4c 37be 9d01 16be 9128 5f3f
00000290: ae7c 4fbe 14ff 73bd 9492 b8bc c29f d5bd
000002a0: b113 8abd 9a12 fa3c 1199 00be 3417 3d3e
000002b0: ff40 07be 8d9f e0bd 2f4c a6be 2dd7 adbd
000002c0: c750 2c3e 77c9 0a3d c3ce ccbd 4f07 94be
000002d0: 5230 babc c851 e63d 38b1 0cbe 2e13 833e
000002e0: 185a 92be 3346 adbd 1671 3fbe 437c ddbc
000002f0: 2532 e7be 54b1 f2bd a556 48bd 8d72 53be
00000300: d9b1 9cbe 9a8b 1bbe 8ecb 8a3e a67b f53d
00000310: 6978 0bbe 0932 273e 215f 4abe fc5e b5bd
00000320: 94cd 88bd f917 a9be 15d7 b0bd fa02 21bd
00000330: f807 6c3e 109e b4bd cce7 adbe 372c 763e
00000340: 0eec 25bd d167 e43d ceb3 4b3d f8ed 49be
00000350: e980 9cbe 0253 67be 3b9f b8bc b482 05be
00000360: 62a2 40bd 665e 45be b4f4 9abe 9517 9bbe
00000370: f07a 153f 13ab 9cbe 7c9d d1bd 9f9d e4bd
00000380: 6d7f 63bd a003 98be b95c a6be 38ae 943e
00000390: 3c73 a03c 5620 6ebe 23f7 3a3d 94fe 67bd
000003a0: 8d4a 863e 45d7 513d 0d50 8c3d 6f56 b6be
000003b0: 6f00 05be f8bd 023e 29cc 5fbe 75ce c6be
000003c0: ca13 85be 7f84 26be 0401 cd3f 714a 7fba
000003d0: b326 2c3e 7c3f 783a 1c9d 5e3d 3054 dcbd
000003e0: 9ff2 4abe de78 17be 90fa a6be 2ad9 a8be
000003f0: 4ad0 8cbe fce2 abbe 07ed 89be c1c6 a0be
1.3136413 -0.07713095 0.13029666 -0.35047975 0.08527165 -0.4432363 -0.05560831 -0.011635022
0.24794026 -0.18660566 -0.20010181 -0.19264834 -0.32573745 -0.062112175 -0.28172275 0.09562441
0.121098794 -0.3737342 0.17948227 0.25831926 0.30201393 -0.07753142 -0.21422681 -0.27596322
-0.22915664 0.15933722 -0.25468433 -0.34280765 0.17690153 -0.2846119 -0.026895283 -0.033143748
-0.22650447 -0.28083518 -0.028851371 -0.30843884 0.15282196 -0.13466403 -0.07010376 -0.02469658
-0.45666054 -0.25726378 0.039736316 -0.1597011 -0.31402162 0.027400764 -0.49889085 -0.29962906
-0.22221924 -0.17851375 -0.15801689 -0.28555724 -0.30293748 -0.024673337 -0.07355576 0.09300446
-0.0057999576 -0.36683884 -0.27355194 -0.09659631 -0.12989882 -0.07676463 -0.45601174 -0.15181628
0.1859495 1.0400016 -0.21945953 -0.17911536 -0.21094865 -0.39273202 -0.278746 -0.183698
-0.0785439 -0.45290723 -0.2736086 -0.20736744 -0.25933355 0.1496056 -0.059971698 -0.025278488
-0.022719515 -0.015372271 -0.4915897 0.0018409322 -0.32944 -0.021788692 -0.17643431 -0.03040457
-0.32162207 -0.23145661 -0.1702152 -0.1577292 -0.12252321 -0.52199143 0.009150359 1.5467514
-0.35315242 -0.35068482 0.020704541 1.2476234 -0.34858185 0.026431685 -0.08869983 -0.008089969
-0.2980626 -0.2861578 -0.37735924 -0.11430586 -0.33895832 -0.04769171 -0.11374242 -0.28883934
-0.19166127 -0.1343635 -0.4272609 -0.3877595 -0.40033355 -0.15254962 -0.14036015 -0.34138477
-0.354198 -0.22779082 0.0045701168 -0.093990535 -0.087946914 -0.29056713 -0.20199476 -0.16022375
-0.09063137 -0.16662827 -0.33956787 0.0034768884 -0.30244052 -0.19674332 0.08274245 -0.35057408
-0.36081585 -0.2450306 -0.3543971 -0.3553302 0.020506004 0.30976757 0.020799512 -0.09204546
-0.31965512 -0.13409153 -0.35588977 0.17558642 0.68911695 -0.28689384 0.11504615 -0.06014033
-0.2958279 0.15917721 -0.26636338 -0.02117954 -0.28678453 -0.22364815 -0.05834176 -0.11127928
0.2804252 -0.17900269 -0.14649053 0.87171274 -0.20262405 -0.059569433 -0.022530831 -0.10430862
-0.06742037 0.030526448 -0.1255839 0.18465883 -0.13208388 -0.10967932 -0.32479998 -0.08488307
0.16827689 0.033883538 -0.10000374 -0.28911826 -0.022728119 0.11246067 -0.13739479 0.2560057
-0.2858436 -0.08460655 -0.18695483 -0.027036792 -0.45155445 -0.11850229 -0.048910756 -0.20649166
-0.30604437 -0.15189973 0.27108425 0.11986475 -0.13620152 0.1632768 -0.19762851 -0.088560075
-0.06679836 -0.33026102 -0.08634774 -0.03930948 0.23049915 -0.088192105 -0.3396591 0.24040304
-0.040508322 0.11152614 0.049732022 -0.19719684 -0.305671 -0.22590259 -0.022536865 -0.1303814
-0.04702986 -0.19274291 -0.3026482 -0.3029143 0.5839071 -0.3059927 -0.10235116 -0.11162876
-0.055541445 -0.29690266 -0.32492617 0.29039168 0.019586198 -0.23254523 0.045645844 -0.05663927
0.26228753 0.051230688 0.06851206 -0.3561282 -0.12988447 0.1276778 -0.21855225 -0.3882939
-0.2599166 -0.16261481 1.6015935 -0.00097385707 0.16811638 0.0009469909 0.05434905 -0.10758245
-0.19819115 -0.14792201 -0.3261304 -0.32978183 -0.27502662 -0.33571613 -0.2693865 -0.31401637

linear2.weight f4 [3, 512]
00000000: ac08 d03e a878 93bd 47a5 62bd d916 88bc
00000010: c3fd 0cbe c7ff 193d 6b1d 403d 6c7c 3a3c
00000020: 6b51 58be 46a4 623d c100 44b8 0e3f 3a3e
00000030: 5a86 df3d 8f54 c4bc 461d 12be 2167 00bf
00000040: 37e1 afbc cb57 06be d44e c93e 2da1 713b
00000050: 6b1b 233e aaf8 053d 98de 3f3e 5edc ed39
00000060: e0fe e63c 1027 9e3e 9231 9abc 1f85 73be
00000070: c3f2 24bf d7b7 d2bc 29a1 953d fd60 dabe
00000080: df8b 8c3d 29d6 863d 581d 813e eebe 1cbc
00000090: 2a21 003d ac3a 99bd e960 e9be 7f4c f73c
000000a0: 880a 7e3c b789 0b3b b42f e03c e041 b43d
000000b0: 76d6 b9be b5ba 943e 5e65 53bd d44a 063e
000000c0: 3cdb bc3b deae 95be d1f9 9c3d e94e 033d
000000d0: 895b 31bd 3705 abbd daf8 9e3e 51c6 ac3d
000000e0: 4cd6 f8bd 6dd3 49bd 97f5 f3bb e19d b9bc
000000f0: ca38 1abd 1af5 103f 0e33 34be 342c fe3b
00000100: 4e83 d13d c61a 323e 3bd9 97bd a002 103d
00000110: 8fef 26bf 6e7a 38bb 5903 e23d 9a4e 313d
00000120: cda1 f53d 447c c9be 1933 74bc c222 afb9
00000130: 4289 b23d 7077 b1be 7813 d2bb bacc 213d
00000140: 6a02 31be ebbc 08bc 0c33 a63d 3c5c b73e
00000150: 201b 8e3c 0756 193c 803d 47bf 518e cdbc
00000160: 43bc 93bd b507 f7bc 1572 0f3e e81a 7d3d
00000170: b930 203e a0b0 c2bd a7ba d5be b0f8 a43e
00000180: 9dd1 1abc 28fa 1fbd 9af1 2dbd 39e0 dd3e
00000190: f6d2 af3c 4ec8 d13c 663f ea3c 18c2 7c3e
000001a0: 2ee9 573c 1396 83be bc06 233c 6b76 fabd
000001b0: 0a60 86bc c6cc c3bd 37c5 81bd f177 6fbb
000001c0: 6670 b0bd 2e50 8ebe 13a8 65bc a239 213e
000001d0: ef67 d9ba 4c0e e2bb 26e2 b33d cf61 f13a
000001e0: 494a 2bbd b780 09bd 396a 09bd ed4a c43b
000001f0: 9d58 91be 8cd4 143d bec9 b2bd c6a8 b93d
00000200: 4135 9c3c fa2b 433c 8fb7 303d 8d7e ea3d
00000210: a2e9 79bc c0fc 383a 9151 4fbe b6e6 47bd
00000220: 386f c4bc 2373 52bd 0e74 8b3d 4612 33bc
00000230: c03a 163d 3871 da3e a064 e33e 1deb 47bb
00000240: c29e aa3d b3dd 4c3c 2fa9 ba3e fdbf aa3e
00000250: bf3f 8f3e cbe5 b83c 5327 93bd 0ed4 01bf
00000260: 6672 a93d d721 35bf 1ae5 5a3d 851e dbbc
00000270: 616e 26bd 7b79 61bb 880c e43c 26d1 d4bd
00000280: 1298 2a3e 7e13 fbbc da43 a6bd 4bc5 823e
00000290: 577b 86bc 1680 8fbd 6e86 193e e640 a93d
000002a0: 0ecf 043d f99c 12bf 3b82 4dbe 876f 48bd
000002b0: 5082 d4be aabb 8f3b 6c52 76bc 38bf f83d
000002c0: 35b0 bebc 90e6 853b 03b8 093e 052b 6abe
000002d0: 62e0 22bc 0330 873c 1b55 e8bd 9448 be3c
000002e0: 71b3 c23c a0a1 febe d288 893c 77f3 45be
000002f0: 23f1 3bbd 989b 153c 98c0 10bd 6650 5abe
00000300: 9630 493c 5111 9ebc 0e8c 123e d720 623d
00000310: c98c 66bd a017 543e 1ada 3b3e a4e8 8abb
00000320: e47d a2be 843f aabc e305 923c b214 9f3c
00000330: 60a5 883e f9ed 183c 8596 80bd 0137 d23e
00000340: acf0 03bf 845b c0be 58b6 80bc da9f a43d
00000350: efde cabc 13a9 ddbc 3f8f 2abf ff61 9dbd
00000360: ee55 05bd 63f5 0fbc 917a ef3b a0ad 103d
00000370: a094 d53e b451 293e 1393 14bd 48d4 023e
00000380: 6215 1b3b 2357 8d3c f3c9 9b3b 7895 02bd
00000390: d895 e3bc 1e7d 1dbd 4bf3 523d 76cc b33c
000003a0: 929e 913e 847d c7be a8ae 413e fdf8 1e3c
000003b0: 1d1c 1bbe 05d7 04bb 307f a8bd 1250 d1bc
000003c0: 211c 3abd dc27 453e 5b11 933e 5911 e6be
000003d0: 5e2b 5dbd 0094 9cbc 8963 9c3c b153 4dbd
000003e0: cd74 90bc f5ae 7ebd 0e17 b4bd 1cee b43b
000003f0: 5623 69bd 6e6d 59bc 4658 083c c0ac 0fbd
0.40631616 -0.07200748 -0.055333402 -0.016612457 -0.13768677 0.037597444 0.046903055 0.011382204
-0.21124808 0.055332445 -4.6730744e-05 0.18188116 0.109142974 -0.023966102 -0.1426898 -0.5015736
-0.021469695 -0.13119428 0.39317954 0.003686975 0.15928428 0.032707848 0.18737257 0.0004536835
0.028197706 0.30889177 -0.018822465 -0.2378125 -0.64432925 -0.025722427 0.073061295 -0.4265212
0.06862616 0.065838166 0.252177 -0.009567006 0.031281628 -0.07481894 -0.4558175 0.030187843
0.0155054405 0.0021291801 0.027366497 0.08801627 -0.36296433 0.29048696 -0.051610343 0.13114482
0.0057634395 -0.29234976 0.07664836 0.032057676 -0.043300185 -0.08350604 0.31049234 0.08436263
-0.12150249 -0.049273897 -0.007445048 -0.02265829 -0.037651815 0.56623995 -0.17597601 0.0077567343
0.102301225 0.17393026 -0.0741448 0.035158753 -0.6520929 -0.0028149146 0.11035795 0.04328785
0.11993752 -0.3935262 -0.014904761 -0.00033404498 0.08717586 -0.34661436 -0.0064110123 0.039501883
-0.17286077 -0.008345823 0.08115205 0.35812557 0.017346919 0.009358889 -0.77828217 -0.025092276
-0.072136424 -0.030155042 0.14008363 0.061793238 0.15643586 -0.09506345 -0.41743967 0.32220984
-0.00944939 -0.039056927 -0.042466737 0.4333513 0.021462899 0.025608208 0.028594684 0.24683416
0.013178153 -0.25700435 0.009950336 -0.12229618 -0.016403217 -0.09560542 -0.06336444 -0.0036539997
-0.08615188 -0.27795547 -0.014017123 0.15744641 -0.0016586761 -0.006898677 0.08783369 0.001841599
-0.04181889 -0.033570018 -0.033548567 0.005990377 -0.2838792 0.036335513 -0.087298855 0.09065394
0.019068362 0.01191234 0.043143805 0.11449919 -0.015253456 0.00070567057 -0.20245959 -0.048804007
-0.023978814 -0.051379334 0.06809245 -0.01092965 0.036677122 0.42664504 0.44412708 -0.0030505129
0.08331062 0.012504029 0.36457202 0.333496 0.27978322 0.022570511 -0.07185235 -0.50714195
0.08273773 -0.7075476 0.053441145 -0.026747951 -0.04063261 -0.0034404683 0.027838007 -0.103914544
0.16659573 -0.030648943 -0.081184104 0.25541148 -0.016416235 -0.07006852 0.14992687 0.082643315
0.032424025 -0.5727077 -0.2006921 -0.048934486 -0.4150567 0.004386385 -0.015034299 0.12145847
-0.023277381 0.004086323 0.13449101 -0.22867973 -0.009941192 0.016502386 -0.113443576 0.023227967
0.023767205 -0.49732685 0.016788874 -0.19331156 -0.045884263 0.009131335 -0.03533992 -0.21319732
0.01227965 -0.019295366 0.14311239 0.0552071 -0.056286607 0.20712137 0.18344918 -0.0042391587
-0.31736672 -0.02078224 0.017825073 0.019419048 0.2668867 0.009334081 -0.06278709 0.4105759
-0.5153911 -0.3756982 -0.015711948 0.08038302 -0.024764506 -0.02705816 -0.66624826 -0.07684707
-0.032552652 -0.008786532 0.007308312 0.03532183 0.41714954 0.16535074 -0.036273073 0.12776291
0.0023663868 0.017253464 0.004754299 -0.031880826 -0.027781412 -0.0384494 0.051501554 0.02194808
0.28441292 -0.38962948 0.18914282 0.009702918 -0.15147443 -0.0020269763 -0.08227384 -0.025550876
-0.045436982 0.19253486 0.2872418 -0.4493511 -0.053996436 -0.01911354 0.01909043 -0.050128642
-0.01763382 -0.06217857 -0.0879346 0.005521549 -0.056918465 -0.013270719 0.008321827 -0.035076857

linear2.bias f4 [3]
00000000: 22f3 f93e 407e 9a3c 3d23 183d
0.48818308 0.018859029 0.03714298
